experiments/best_model.pth (torch, 216501 bytes, 21 tensors)

embeddings.0.weight f4 [50, 25]
000000 de 30 0a bf 71 f2 99 be e0 48 48 bf a4 5f e7 bd
       -0.53980815 -0.3006778 -0.782362 -0.11297539
000010 ed d9 39 3e 1d 19 9d bd 94 5e 09 bf 45 d2 35 be
       0.18149538 -0.076708056 -0.5365994 -0.17755993
000020 e8 bf 1f 3d 37 69 26 be b9 3a 28 bd 40 e1 84 bb
       0.039001375 -0.16251074 -0.041071627 -0.004055172
000030 e3 01 8b be 79 1c 6f be dc 91 b7 be 80 6d 99 bc
       -0.27149877 -0.23350705 -0.3585347 -0.018728971
000040 c0 a5 8b be 2e e7 b4 3e 1f 77 09 bf 51 66 95 be
       -0.27274895 0.35332626 -0.5369739 -0.29179624
000050 8c 95 9b be 4c 03 13 bf 2d ae 24 3d 0f 4f ab 3e
       -0.30387533 -0.57426906 0.04020517 0.33458754
000060 b6 1d 11 be fb 74 9c bd ea ac 6e 3c 45 bd ac 3e
       -0.1417149 -0.076395 0.014567593 0.3373815
000070 43 a0 8c 3e 3d 2c 50 be 33 2f 87 3d f9 41 9c bd
       0.2746602 -0.20329376 0.066007994 -0.07629771
000080 e6 6a 68 3f 0f fd 1f bf 18 1e e9 bd c9 13 24 bf
       0.90788114 -0.6249551 -0.11382693 -0.6409269
000090 db 35 99 be bc 62 2f 3e 53 7e dd 3e e4 87 68 3f
       -0.299239 0.17127508 0.4326044 0.9083235
0000a0 27 8f 0b bf 9b f6 4d be ae d1 6c 3f c1 4e 91 3f
       -0.5451531 -0.20113604 0.92507446 1.1352159
0000b0 3e cc ba 3e a0 ea c0 be de 8c 40 3f bc 10 47 3f
       0.3648395 -0.37679005 0.75214946 0.7775991
0000c0 e3 d0 5b bf e0 a7 0b bf e5 46 33 bd 62 4a 29 be
       -0.8586561 -0.5455303 -0.043768782 -0.16532281
0000d0 ef 42 04 3f ed 32 4d 3d e2 68 46 3e 57 67 20 3f
       0.5166463 0.050097395 0.19375947 0.62657684
0000e0 f7 14 03 3f fa e1 85 3d a8 0a 06 be 4f c3 e4 be
       0.51203865 0.06537242 -0.13090003 -0.4468026
0000f0 0e 20 95 bc 25 49 69 3d 9f 23 c3 bd d0 8b 89 3e
       -0.018203761 0.05695452 -0.095282786 0.2686448
000100 2e 9f 86 bd 91 8f 7e bc 39 b4 f3 3d c9 21 ad be
       -0.0657333 -0.015537159 0.11899609 -0.3381484
000110 18 57 21 be e5 47 8c be 95 67 da bd 7d 49 70 be
       -0.1575588 -0.273986 -0.10664288 -0.23465534
000120 2b 5a 88 3e e3 c7 b0 3d e2 80 3f be c1 4f b6 3d
       0.26631293 0.08631875 -0.18701509 0.089019306
000130 89 20 d5 3e a2 b3 d5 bd 2c 0b dd 3e 95 06 02 3d
       0.41626385 -0.10434653 0.43172586 0.03174456
000140 f5 a1 bb bd 7b 7a 0b be fb 28 a3 bd 1d 97 47 3e
       -0.0916175 -0.13620941 -0.07966801 0.19491239
000150 a6 ad 9f bb a4 2a c8 3d 4c 4c e0 3d 82 c4 de bc
       -0.0048729954 0.09773758 0.109520525 -0.027193312
000160 63 29 9e bb f5 ee 0a 3e 50 b2 4c bb c0 c4 da bb
       -0.004826711 0.13567717 -0.0031234212 -0.0066762865
000170 56 c2 17 bd 82 b6 dd bc ba 11 c6 3d a2 6f 89 be
       -0.037050568 -0.027064566 0.0967135 -0.26842982
000180 5c 2c b2 be 45 9c a1 3d ab be c2 3c d3 b2 54 3e
       -0.3479947 0.07891134 0.023772558 0.20771341
000190 09 08 26 be 52 ac 06 3f f0 fd a6 3e a2 d2 73 bd
       -0.16214003 0.5260669 0.32615614 -0.059527047
0001a0 ba 3b 49 be 3c 6a 5c 3d ae 28 64 be 94 1e 71 be
       -0.1965169 0.05381225 -0.22281143 -0.23546821
0001b0 39 f5 4e bf 37 05 86 be b3 c7 00 be 9b cc f9 3c
       -0.8084293 -0.26175854 -0.12576179 0.030493071
0001c0 df b4 aa 3e ca 57 18 3f 32 89 b2 be f2 7e f9 3e
       0.3334112 0.59508955 -0.34870297 0.48729664
0001d0 00 45 c7 be 87 89 99 bd 7b 88 cc be 21 43 8e 3d
       -0.3891983 -0.074969344 -0.39947876 0.069463976
0001e0 f4 2c 19 3f 02 87 a4 bd 09 3b 68 3e 3e eb ca be
       0.5983422 -0.08033563 0.2267877 -0.396326
0001f0 e7 cf 6b be 19 a1 a2 3e b1 6e f0 3e 4d 97 a6 3d
       -0.23028527 0.31763533 0.4695945 0.08134327
000200 b5 ca 06 bf cf a3 c6 bd 8c 7a 05 be 9d be 9b be
       -0.52653056 -0.09699213 -0.13035029 -0.30418864
000210 ae 22 c3 3e e0 86 cb 3d 52 fb 60 be dc 96 1f be
       0.38112396 0.09937835 -0.21970871 -0.15584892
000220 46 08 f3 be 54 9e c7 3c 6f e5 db 3d cb 1c 7b bf
       -0.4746725 0.024367489 0.1073712 -0.9809081
000230 af 34 17 bd dc 8b 24 3f 53 48 b4 3e be f7 cc be
       -0.036915477 0.6427591 0.3521143 -0.40032762
000240 63 82 04 3e 86 d7 9c 3c de 46 cd 3e 91 c9 f0 3d
       0.12940364 0.019145738 0.4009313 0.11757196
000250 5b 54 10 3f 90 2d ff 3b 4c 5a e3 3e 7b 00 10 3e
       0.56378716 0.007787414 0.4440483 0.14062683
000260 65 48 c7 be a3 cd 03 be 0a 5c 43 be 0e bb 81 be
       -0.3892242 -0.12871413 -0.19078079 -0.25338024
000270 82 e7 3e 3f 9d 01 62 bd d6 87 a6 3e 8f b9 9b be
       0.74572 -0.05517732 0.3252551 -0.30415007
000280 6e a5 b3 3e eb 99 09 bf b5 7e c3 3e 9f 42 20 3f
       0.3508715 -0.53750485 0.38182607 0.62601656
000290 8c c2 7f 3e 43 d0 bc bd fb 03 0e 3f ca 87 82 bd
       0.24976557 -0.0921941 0.55474824 -0.06373556
0002a0 5b 5a 16 bf 7d 21 4b be e7 52 41 bf a1 28 e8 3d
       -0.5873162 -0.19836994 -0.75517124 0.11335874
0002b0 3d 94 22 bf fb 27 8d 3c 2f a9 42 bf 97 3a 00 bf
       -0.63507444 0.017230978 -0.76039404 -0.500894
0002c0 cf 92 82 bd c1 7f 61 3e e2 dc 82 be 2d 73 d9 be
       -0.06375658 0.2202139 -0.25559145 -0.42470685
0002d0 1f 22 b5 3c 3d f4 9a 3e d5 15 ca be f0 24 83 be
       0.022110997 0.30264464 -0.39469782 -0.2561412
0002e0 92 a6 e7 3e 4d c2 09 bf aa 9b 29 be 67 77 48 3e
       0.4524427 -0.53812104 -0.16563287 0.19576798
0002f0 e2 c0 90 3e 7e b8 3a 3f dd af a0 bf 6d ee 3e be
       0.28272158 0.7293776 -1.2553669 -0.1864564
000300 82 8d 26 3e 7a 21 51 3d 4f 28 03 3f 6a 4c 73 bf
       0.16264918 0.051057316 0.5123338 -0.95038474
000310 d3 22 78 3f 70 21 17 bf 3e 9f 12 bd 75 ab 00 bf
       0.9692814 -0.59035397 -0.035796396 -0.5026162
000320 87 0c bb 3e bb 19 1e be cf 1a 36 be 33 76 39 3f
       0.36532995 -0.15439503 -0.17783664 0.7244598
000330 34 03 8c 3d e1 93 dc bd 32 55 82 bb a3 e1 94 3e
       0.068365484 -0.10770393 -0.003977441 0.29078397
000340 7c a6 13 bd 52 b2 17 3e 4b ef 87 3d 96 fe 09 3c
       -0.036047444 0.14814118 0.066374384 0.008422514
000350 18 4d 14 3e 27 0c 4a 3d 7b 5f b6 3d 8b 10 db bc
       0.14482534 0.049327996 0.0890493 -0.026741287
000360 9c bd 81 3d 3a 36 1b be 7c 62 f5 bc c0 3f ff bd
       0.06334993 -0.15157405 -0.029954188 -0.12463331
000370 f4 9e 88 3e 0a d0 1a 3d 4e 7e b4 bd 34 c5 d0 3d
       0.26683772 0.037796058 -0.08813153 0.101938635
000380 7f ac 3f be b1 0c c5 3d 96 0c 52 be 44 c7 13 3f
       -0.18718146 0.09621561 -0.20512614 0.5772593
000390 99 7a 28 bf d8 b4 62 3e 0b 7f 84 be 13 b7 b2 be
       -0.6581207 0.22139299 -0.25878176 -0.349053
0003a0 18 f3 08 3f 77 fd ab bd c5 1e a5 3e 5d 8f 27 3d
       0.5349593 -0.08397954 0.32250038 0.040908206
0003b0 5d 25 e2 bd 89 7d ba bd 9f ab c4 3e 77 35 7b bd
       -0.11042283 -0.09105975 0.38412187 -0.061330285
0003c0 d9 3d e0 bc 52 e6 b4 be 53 88 83 3e e2 85 d1 be
       -0.027373241 -0.3533197 0.25689945 -0.40922457
0003d0 79 5d b7 be 0c 7f bb bd 68 fb 2e 3d 56 69 13 be
       -0.358135 -0.09155092 0.04272023 -0.14395651
0003e0 3f 5b 7e be 5f 84 77 3e 63 63 bc be f9 4e 47 be
       -0.24839495 0.2417159 -0.36794576 -0.1946372
0003f0 9a 68 95 be b7 a8 69 bf 3e c4 a1 3e 97 a0 76 be
       -0.29181367 -0.91273063 0.31595033 -0.24084698

embeddings.1.weight f4 [25, 12]
000000 0e 36 34 bc 70 3b 27 3e a7 ae 83 3c 1b ab 4e 3c
       -0.010999216 0.16331267 0.016074492 0.012614037
000010 79 e8 28 bd 42 42 84 3b ae d2 16 3c 74 d7 48 bb
       -0.04123733 0.004036219 0.009205503 -0.0030645998
000020 b1 b4 0b 3c 63 a1 d9 3d 86 60 2d 3c c6 15 e9 3c
       0.008526967 0.10626485 0.010582095 0.028452765
000030 7a a5 d3 3c 4a 65 27 3d bf 56 d0 3d 8e e3 5e 3d
       0.025835741 0.04086808 0.101727955 0.05441623
000040 bf b1 b5 3d 62 8a d0 3d 92 4f b2 bc 1b d2 96 be
       0.08871793 0.101826444 -0.021766458 -0.29457173
000050 ad 07 4e 3e 5a f7 f7 bb ca 91 f7 3d 47 37 8b 3d
       0.20120116 -0.0075673284 0.12088354 0.06797653
000060 c9 80 07 3d cd f9 00 3d 48 ee 8a 3d 2f 28 10 3d
       0.033081803 0.03148823 0.0678373 0.035194572
000070 7c 88 48 3d ac 28 14 be 05 74 0d bd 29 59 51 3c
       0.048958287 -0.1446864 -0.034534473 0.012777605
000080 80 83 47 bd 15 13 79 bd ef 91 00 3e c6 f5 8c bc
       -0.048709393 -0.060809214 0.12555669 -0.017207038
000090 f6 ed e9 bd c8 08 0b 3c 6b 10 bb 3d 56 71 94 bb
       -0.114223406 0.00848598 0.09133991 -0.0045301123
0000a0 f6 4b ac 3c 5c 60 70 3c 6c 3b 9b bd b8 8f 1e 3c
       0.021032315 0.014671411 -0.07579693 0.00967782
0000b0 b2 5a c5 bd 10 5c ff bc 20 c5 a2 3d 08 b5 07 bd
       -0.096364394 -0.031171829 0.07947755 -0.03313163
0000c0 7b c4 f8 3c 54 bf e1 3c 8f 54 63 bd 87 d8 f5 bd
       0.030367127 0.027557053 -0.055500563 -0.1200419
0000d0 73 1d f0 3c 13 e8 7d bd 9f 8a 43 3d 84 54 51 bd
       0.029310917 -0.0619889 0.04773962 -0.05110599
0000e0 9f 6c 93 bd 78 22 25 be 2d 5a a8 3d 0e bd e4 3d
       -0.07198452 -0.1612643 0.08220325 0.11168872
0000f0 af bd 41 bc 9a 55 f5 bd ee 56 85 3e 95 e1 ae bd
       -0.011825009 -0.11979218 0.26042885 -0.0853912
000100 5e c0 1c 3e b6 f1 06 be 9d 9e 10 be a0 fe 29 be
       0.15307757 -0.13178143 -0.14123006 -0.16601038
000110 7c c2 17 bd fc a8 8a bd 8e 36 71 3b c3 1d 3f be
       -0.03705071 -0.067705125 0.0036806199 -0.18663697
000120 57 c2 7f 3a f6 41 85 bd cd ed 0a 3d b4 63 52 3d
       0.0009756437 -0.06506722 0.03391819 0.051364616
000130 d5 0d e5 3c e2 1f 77 bd 7b ae 07 3d f5 3c 78 3d
       0.027960697 -0.06033314 0.033125382 0.06060501
000140 de 66 56 3d 99 aa 5c bd 7a 1a 02 be c6 b4 73 3d
       0.052344196 -0.053873632 -0.12705413 0.05949857
000150 47 17 01 be 73 1d f1 bc b7 e4 90 bc d0 57 08 3e
       -0.12606536 -0.029432988 -0.017687185 0.13314748
000160 45 a0 91 3d f7 26 4e 3d 43 06 66 3a 44 7b c7 3b
       0.07110647 0.05033013 0.0008774737 0.0060876925
000170 c8 e4 b6 bd f4 e7 01 be 6a d2 96 bc e9 12 0c bd
       -0.08930355 -0.1268614 -0.01841088 -0.03419772
000180 6a f9 ab bd 3d 08 ca bd 6d 35 c1 3d f9 66 fc 3d
       -0.08397181 -0.098648526 0.09434018 0.12324328
000190 1e fa d8 bc 52 87 57 3d 95 c2 c0 3c 55 18 f6 bc
       -0.026486453 0.052619286 0.023530284 -0.0300409
0001a0 42 df 8b bd a2 e9 d3 bc 5f e0 3e bd ee cf 28 3d
       -0.068296924 -0.02586824 -0.046600696 0.041213922
0001b0 19 b4 fe 3c f0 ea 37 3c ef f6 1b 3c 37 38 30 bd
       0.031091737 0.011225447 0.009519323 -0.04302236
0001c0 66 f0 d8 3d 5f b9 20 bd 34 b1 21 bc 92 c7 29 3e
       0.10592727 -0.039239284 -0.009868909 0.16580036
0001d0 12 4e 3e 3d c1 dc f4 bd 41 e3 09 be bb c9 cb 3b
       0.046461172 -0.11956168 -0.13465597 0.0062191165
0001e0 44 1f a9 bd 98 c2 64 bd 67 c5 86 bd 70 25 ec bd
       -0.082579166 -0.05584964 -0.0658062 -0.11530578
0001f0 0a 4f 48 3d a2 98 c9 3b 0c 68 87 3d 14 36 09 3e
       0.048903503 0.0061522285 0.06611642 0.13399535
000200 72 55 d4 3d df 93 1c be ba c7 0c bd 89 5b 62 3b
       0.1036786 -0.15290783 -0.03437016 0.0034539422
000210 c7 26 33 be 09 cf 03 bc cc b5 1c 3e 9d de a1 bd
       -0.17495261 -0.0080449665 0.15303725 -0.07903788
000220 0f 34 15 3e 7e 93 27 be 6c ec 0a 3d 4a 39 cd be
       0.1457064 -0.16364858 0.033916876 -0.4008277
000230 f5 a6 79 3d 7f 26 f3 bc 46 a8 76 be 5a 2c 39 be
       0.06095024 -0.029681442 -0.24087629 -0.18083325
000240 76 a5 bc 3d 19 42 fb bd 9f f5 fb 3c 81 5e 75 3c
       0.09211247 -0.122684665 0.03075677 0.014976145
000250 a7 7a a4 3d 75 e5 af bd d2 3c 57 3d 54 7c ca 3c
       0.080312066 -0.08588687 0.052548237 0.024717487
000260 42 b7 93 bd 20 5a 8d 3d e5 3c 01 bd 7b db 96 bc
       -0.07212688 0.069019556 -0.031552214 -0.018415203
000270 bf 3f a2 3d 55 8d 12 bc 51 87 5a bd b5 42 a6 bd
       0.07922315 -0.008944829 -0.053351704 -0.08118192
000280 3e ab a7 3d 48 61 70 3c fd 98 25 3d ac 5b 2c bc
       0.08186959 0.014671631 0.040429104 -0.010519903
000290 4b b2 e4 bd 1a 64 10 be df ef 15 bb 81 2d c0 3d
       -0.11166819 -0.14100686 -0.002287857 0.09383679
0002a0 2c 32 3c 3d ab 05 9f bd 3e bf cb bd ff 0b f5 bc
       0.045946285 -0.07764753 -0.09948586 -0.029912947
0002b0 3f 76 0a 3e fc f1 86 3d ef 8d de 3d c3 9f 5f bc
       0.1352167 0.065891236 0.108669154 -0.01364893
0002c0 49 8a b1 bd 80 75 8e bc af 90 e7 bc cf e3 a4 b9
       -0.08668954 -0.017390013 -0.028267233 -0.00031450248
0002d0 fe dd 8b 3d e7 aa ad bd d0 e1 b4 bd a0 bb 0e 3d
       0.06829451 -0.08479863 -0.08832133 0.034846902
0002e0 e7 76 8a bc e8 1a 1c 3d 64 f4 5a bd d4 58 77 3d
       -0.0169024 0.038111597 -0.053455725 0.060387447
0002f0 2a 66 2c 3d 4b a2 0c 3d 59 54 33 3d 55 f1 f2 bb
       0.04208962 0.034334462 0.043781612 -0.007414023
000300 72 b1 c8 3c f7 94 fa bd 22 fc b5 bd b9 47 b7 3d
       0.024498675 -0.12235444 -0.08885981 0.08949227
000310 05 1e ab bd 88 2a 3e bd df f7 90 bd ca c1 40 bd
       -0.08355335 -0.04642728 -0.07078528 -0.04705981
000320 68 6d 69 3d c1 e7 91 bc 62 47 fa bc fe 27 a6 bc
       0.056989104 -0.017810704 -0.030551616 -0.020282742
000330 54 bd 08 3c 30 2d 9d 3c 1c da 22 be 3a 61 94 3d
       0.008345921 0.019186586 -0.15903515 0.07245107
000340 d1 ab 46 3e 61 b2 61 3c a9 59 32 3e 76 ac c1 3c
       0.1940148 0.013775439 0.17417015 0.023641806
000350 85 60 03 3e 39 fa 84 3c 27 1e 01 3e 73 bc a9 be
       0.12829788 0.016232597 0.12609158 -0.33151588
000360 49 66 de 3d 6c f6 3d 3e dc d0 75 3d f0 ef c8 3c
       0.10859353 0.18551034 0.060013637 0.024528474
000370 f1 1f 81 be 73 e8 13 3d b8 1c bf 3d 7a 7b 46 bd
       -0.25219682 0.036110353 0.093316495 -0.0484576
000380 4c ae 0f bd e4 ff 22 be da 36 bd bd e0 d0 e9 bd
       -0.03507833 -0.15917927 -0.09238978 -0.11416793
000390 51 1d 1c 3e 91 2d 0c 3e cd 44 a4 3e dc e5 18 3d
       0.15245558 0.13689257 0.3208374 0.037328586
0003a0 22 8b be 3d 0e e1 8b 3e 32 8b d2 bc d3 2d 51 be
       0.09303881 0.2732014 -0.02570114 -0.20427637
0003b0 c8 8e 21 3e 61 47 9b bd 43 d1 c9 bd d5 2f b6 be
       0.15777123 -0.07581974 -0.09854367 -0.35583368
0003c0 86 72 2e 3c 3f 7c 8b bd d6 f6 91 3d 4e af 14 be
       0.010647422 -0.068108074 0.07127158 -0.14519998
0003d0 4d 31 c5 bd 1d 87 71 bd f3 c4 97 bc 0b a3 8a bc
       -0.09628544 -0.058966745 -0.01852653 -0.016923448
0003e0 66 49 13 3d 34 8a ba 3d c8 46 a2 bc 10 74 d0 bc
       0.03595867 0.091083914 -0.019809142 -0.025445968
0003f0 ff 29 aa bd 0d 9e 99 bd 2e 80 2b bc 66 b8 8a bd
       -0.08308791 -0.07500849 -0.010467572 -0.067734525

embeddings.2.weight f4 [3, 1]
000000 45 07 28 bd 19 f7 11 3e 13 a6 f5 bf
       -0.041022558 0.14254417 -1.9191307

embeddings.3.weight f4 [3, 1]
000000 0d 87 31 bd 06 04 0a 3e 86 d9 a9 bf
       -0.043341685 0.13478097 -1.3269508

embeddings.4.weight f4 [3, 1]
000000 a3 be 39 3d ff cf 58 bd f8 51 28 be
       0.04534782 -0.052932736 -0.16437519

embeddings.5.weight f4 [3, 1]
000000 4b 58 1b bd ed d4 59 3e 2e 42 dd bb
       -0.037926 0.21272631 -0.006752274

embeddings.6.weight f4 [11, 5]
000000 40 18 7c bd e1 ec 3d 3e 5d 82 86 3e e9 d5 b6 bb
       -0.061546564 0.18547393 0.26271334 -0.0055796993
000010 0d 9c 60 bb 6d c3 68 3c 63 50 22 bd c0 df c7 3e
       -0.00342727 0.014206749 -0.039627444 0.39037895
000020 c7 19 1a 3d 56 ed 60 bc 74 71 92 bd 48 8d cb 3d
       0.03762224 -0.01372846 -0.07150546 0.09939057
000030 16 d7 b6 3e 03 35 6c 3d eb 71 3c bc 9b e5 f6 3d
       0.35710973 0.057667743 -0.01150177 0.120555125
000040 4f 8c b5 3e 80 36 c4 3b fd e5 25 3f 40 77 38 3c
       0.3545861 0.005987942 0.6480406 0.0112589
000050 9e 66 d9 3b 9b b5 02 bd 5e 2e c3 3e 4e d1 57 3d
       0.0066345474 -0.031911474 0.38121313 0.052689843
000060 59 77 98 3d cb 6d 76 3e 93 42 16 3d 3f 7b cd 3e
       0.07444639 0.2406532 0.036684584 0.40133092
000070 b0 12 60 bd 61 8f 36 bd d2 29 e7 bd 08 5e 69 3e
       -0.05470532 -0.04457033 -0.112872735 0.22789776
000080 7a 96 29 3f 11 ea be 3e e2 e0 98 3e 59 aa 05 bf
       0.66245234 0.37287953 0.29859072 -0.52213055
000090 d1 6b 98 bb 0c cc 10 3f c1 ad f1 be 3d 06 6a 3f
       -0.0046515246 0.5656135 -0.47202876 0.9141577
0000a0 9b b0 55 3e 85 88 f2 3d 47 e5 a3 3e d2 13 1a 3e
       0.20868151 0.11842445 0.32010862 0.15046623
0000b0 c7 0c 00 3f 67 1a b6 3e 38 d4 31 3d c8 4d be 3e
       0.50019497 0.35567018 0.04341528 0.37168717
0000c0 a4 f6 cd bd b3 d6 8b 3d 5e 6c 36 be 93 b7 af bf
       -0.100568086 0.0682806 -0.17814776 -1.3727897
0000d0 30 8a 82 be b2 5d 53 bf df 6e 07 bf
       -0.25496054 -0.8256484 -0.5290355

fc.0.weight f4 [256, 60]
000000 74 8d fb be ff bb 54 bd 9f 43 5b 3e 1a 6a d2 be
       -0.49131358 -0.0519371 0.21412514 -0.41096574
000010 da 79 e8 3d 09 1e 00 be b9 c0 8a 3d d3 09 55 3e
       0.11351366 -0.12511458 0.0677504 0.20804529
000020 31 4e 08 bf b8 4a a9 3e bb 1d a6 be 26 69 9a 3e
       -0.5324431 0.33064818 -0.32444558 0.30158347
000030 63 df b6 be ea c7 37 3e 10 a8 50 bd 03 19 6d 3e
       -0.35717306 0.17947355 -0.050941527 0.23154072
000040 ab f7 06 bf b4 f4 1d bd 9f 6b 0b be a6 b4 63 be
       -0.5272166 -0.038563445 -0.13615273 -0.2223688
000050 36 c3 26 3e 6c 04 9d bd a7 85 89 3d 7f 1e 66 3e
       0.16285405 -0.07666859 0.06714945 0.22472571
000060 1f 34 c7 be 23 57 5a be e5 8a af 3e db 23 89 3e
       -0.38906953 -0.21322303 0.34285656 0.26785168
000070 b9 53 68 be b0 83 f4 bc 69 15 50 3d cc 98 58 bc
       -0.22688188 -0.02984795 0.05080167 -0.013220023
000080 ef 16 04 3f 9d 31 56 be 15 04 87 39 93 62 4f 3c
       0.51597494 -0.20917363 0.00025752248 0.012657779
000090 20 57 87 3e 4c 79 ce 3e b3 12 ea 3e 4d 64 1b bf
       0.2643366 0.40326917 0.4571739 -0.6069992
0000a0 5f 96 8f 3e 4b 66 da 3e 9e a9 9d 3e 1c f3 f3 be
       0.28044412 0.42656168 0.3079347 -0.47646415
0000b0 23 3b ed 3e 41 87 80 be 8c d7 47 bf 9c 9f 3f 3f
       0.4633418 -0.2510319 -0.78063273 0.7485292
0000c0 9e 04 a9 bf 21 8a c5 3e 9f 37 d1 3e 27 23 ac 40
       -1.3204534 0.38581946 0.40862748 5.379291
0000d0 46 24 5c 3f f6 bd a4 3f b8 61 61 bd 7b cd 08 bf
       0.8599285 1.2870471 -0.055024832 -0.5343854
0000e0 14 4e 45 bd f5 8b 9f bd a5 ac 76 bd 2a 1b 21 bd
       -0.048170164 -0.077903666 -0.06022324 -0.039332546
0000f0 bc 9b 09 3f 7c f6 55 bf 88 44 4b be f7 13 1f 3e
       0.53753257 -0.8357923 -0.19850361 0.1553496
000100 45 aa b1 3e d9 8b 0a be 0e 66 bc b9 38 f4 e3 3d
       0.34700218 -0.1352991 -0.0003593419 0.111305654
000110 5c 2f b9 3e 5e eb 2c be f5 08 7d be 81 83 6f 3d
       0.36168945 -0.1688666 -0.24710448 0.05847502
000120 ba 88 98 3e f5 af 8b be 90 b0 34 bf 2b 71 c6 bd
       0.29791814 -0.27282682 -0.70581913 -0.09689554
000130 0a 2d b5 3e 58 8f 1f 3e 6c 05 8e 3e 81 71 da 3c
       0.35385925 0.15582025 0.27738512 0.026665451
000140 55 85 69 3d 77 cd 46 bd 3b ce e6 bd 35 85 11 3d
       0.05701192 -0.04853579 -0.11269804 0.035527427
000150 1f 50 cc be a5 4c 7d 3e 21 50 77 3d df 12 87 3c
       -0.39904878 0.24736269 0.06037915 0.01648849
000160 a4 c5 a6 be 10 d3 06 3e 5d 65 8a be 70 d5 c7 3c
       -0.32572663 0.13166451 -0.2703046 0.024393767
000170 7e 1f 3a 3e f4 e8 2f be b3 50 43 bf 45 27 d9 3e
       0.18176076 -0.17178708 -0.7629501 0.42412773
000180 9e 35 07 3f 3d 56 8c 3b fa f7 dc 3e 30 b8 a1 be
       0.5281619 0.0042827413 0.4315794 -0.31585836
000190 50 fd 29 3f bf 06 21 3f b6 e2 89 be 92 1f bc bc
       0.6640215 0.6290092 -0.2693078 -0.022964273
0001a0 6c e6 d3 3e 8d 2a 7f 3e 7b 2c 95 3e 1d 46 f5 be
       0.41386735 0.24918576 0.29135498 -0.47905055
0001b0 a3 e2 ee 3e a1 26 74 be 4a f3 90 40 ca d9 76 3f
       0.46657285 -0.23842861 4.5296984 0.9642607
0001c0 c3 0e 8f c0 bb b5 9b 3e 15 a4 2c bf 5f ea 03 bf
       -4.470552 0.30412087 -0.6743787 -0.51529497
0001d0 7d 41 99 be 59 8b de be 62 73 46 3d a9 36 ae 3d
       -0.29932776 -0.4346569 0.04844988 0.08506519
0001e0 3b 97 be 3d a7 7a 3e be 06 3e 28 be 5e 5d 8b be
       0.09306189 -0.18601476 -0.1642991 -0.2721967
0001f0 a2 62 b1 bd be c8 02 3f cb be 28 bf 3a 50 3a be
       -0.08661391 0.5108756 -0.65916127 -0.18194667
000200 64 00 3b be 47 c1 fd 3e 6f fe 0e be ce 3a a9 bd
       -0.18261868 0.4956152 -0.13964246 -0.08263169
000210 d2 2c 0d be a0 b2 aa be 4c 1b f7 bd 93 30 1f be
       -0.13786629 -0.33339405 -0.12065753 -0.15545873
000220 3a 39 9b bc f7 4f 7b 3e ab b5 59 3d f6 0a 07 3e
       -0.018948186 0.24542223 0.053151768 0.13187775
000230 58 74 bd bd 87 6c 8f be c0 d2 df bd bb c6 ea be
       -0.092507064 -0.28012487 -0.10928869 -0.45854744
000240 ea 1c f6 be a7 16 7f 3d c5 0f 61 3c 1f 44 cb bd
       -0.48068935 0.062277462 0.01373667 -0.099251024
000250 d6 38 04 3f 2d b7 64 3e ef 4b 50 3e e6 03 1b be
       0.51649225 0.22335501 0.20341466 -0.15138206
000260 36 9b 5d bd 24 d8 02 3e 70 ce 21 3d 9c 4d b2 bd
       -0.0541031 0.12777764 0.039503515 -0.08706209
000270 d1 be 1c 3e 8a fc 22 3c 75 d6 b1 be 4b 0c 3c 3e
       0.15307166 0.009947905 -0.3473393 0.18364064
000280 30 e4 6a bf 40 8f c5 3c f9 61 d2 bd 47 75 8f be
       -0.91754436 0.024116158 -0.10272593 -0.28019163
000290 ed 43 7d 3e 1a a0 32 3d 33 2c 1a bf 5e d9 4d bd
       0.24732943 0.043609716 -0.6022369 -0.050256126
0002a0 55 a3 49 bf 84 c3 6a bc 32 f2 3b bd d5 be d8 c0
       -0.7876485 -0.014328841 -0.045885272 -6.773295
0002b0 19 e5 9e 3f 70 92 d2 3f 62 9c 0f 3d 90 9f 66 3a
       1.2413665 1.6450939 0.035061248 0.00087975804
0002c0 4e 28 97 bf e6 ba 6a 3f 9c 4c 23 bc 18 78 56 be
       -1.1809175 0.91691434 -0.009966996 -0.2094425
0002d0 a1 6c 7d 3e 74 47 0f bf ae 27 0c bf da d3 a3 be
       0.2474847 -0.55968404 -0.54748046 -0.31997567
0002e0 7e af 6e 3e ff c8 08 3e b7 67 11 be 96 b2 52 3e
       0.23309132 0.13357924 -0.1419972 0.20575938
0002f0 a3 e7 1c bf 1f f5 b5 3e 2b 61 99 3e ad 52 83 3e
       -0.6129095 0.35538575 0.29956946 0.25649014
000300 68 aa b2 be c1 34 95 3e 0b 5c 80 be 07 66 12 be
       -0.34895635 0.2914181 -0.25070223 -0.14296733
000310 2b b7 38 3e f7 d2 80 be 75 e3 61 bd 6a 11 01 bf
       0.18038623 -0.25160953 -0.05514856 -0.50417197
000320 98 79 cb 3e a4 58 20 3e 02 38 52 3e 8a 33 f1 3e
       0.39741206 0.15658814 0.20529178 0.47109634
000330 e1 d2 d2 3c e0 ae 9a 3e c9 02 cc 3b 83 68 97 be
       0.02573532 0.30211544 0.006225918 -0.29571924
000340 18 16 88 be 7d a5 84 3e a4 e3 05 3d 4e f1 e2 be
       -0.26579356 0.25907508 0.0326878 -0.44324726
000350 a6 8f ab bc 8b 36 90 3c b6 d0 87 3e 49 7c 91 bd
       -0.02094252 0.017604133 0.2652642 -0.07103784
000360 59 07 7a bc dd a4 2d bb da 41 2d bf 13 44 40 3f
       -0.015260541 -0.0026495971 -0.67678607 0.75103873
000370 6f 17 56 c0 a2 fd 8a bd 86 fb ce be ed 7e 7f 3c
       -3.3451803 -0.06786658 -0.40426272 0.015594226
000380 07 0a 13 bf 73 37 94 3d f1 1b 74 3e 04 e9 ad be
       -0.57437176 0.072371386 0.23838784 -0.3396684
000390 63 da af 3e 64 ec b4 3e 29 d6 bd bd df a2 75 3f
       0.34346303 0.35336602 -0.092693634 0.95951647
0003a0 fe 34 40 c0 a7 a7 85 bf 00 29 83 3f 6a 96 cb 3e
       -3.0032344 -1.0441788 1.0246887 0.39763194
0003b0 b5 15 1a be ed 41 a9 bd c0 44 95 3d 77 37 fc bc
       -0.15047343 -0.082645275 0.07288504 -0.030788166
0003c0 b1 09 db bd 42 77 df be cd d0 cb 3d 10 39 b5 3d
       -0.10695208 -0.43645674 0.09951935 0.088487744
0003d0 d7 80 94 be 89 8b b7 bc 75 d0 74 bd 5e c1 11 3e
       -0.29004547 -0.022405403 -0.059769113 0.1423392
0003e0 21 8d 69 bd 09 0c e2 3e ef 01 d2 3e 96 76 80 bc
       -0.057019357 0.44149807 0.410171 -0.015681546
0003f0 69 68 f1 39 0a 93 1c 3e 7f 2a 68 3d a3 a2 9f bc
       0.00046044894 0.15290466 0.056681152 -0.01948673

fc.0.bias f4 [256]
000000 f5 35 d4 be 36 83 00 3e 6f f7 28 bf c6 36 bc be
       -0.41447416 0.12550053 -0.66002554 -0.3676054
000010 00 16 7b be a2 89 46 bf 37 d2 4a bf ed 77 5d bd
       -0.24520111 -0.7755376 -0.7922701 -0.05406945
000020 75 4c dc 3d 6c 31 32 bf c7 e7 92 be 90 05 27 be
       0.107567705 -0.6960666 -0.28692457 -0.16310716
000030 4a 89 00 bf 6e a1 1e bf 91 65 44 3e 34 37 be be
       -0.50209486 -0.6196507 0.1917937 -0.37151492
000040 2c 8f 4e bf 84 61 a5 3c 87 d2 a3 be bf bb d4 3d
       -0.8068721 0.0201881 -0.31996557 0.10387372
000050 63 74 33 3e f5 7f 8d be 08 dc 36 bf e4 8d 11 bf
       0.17524867 -0.27636686 -0.7142949 -0.5685713
000060 d0 91 9d bd 42 ce 0b bf 2e 8c 0a be a9 a1 bc 3d
       -0.07693827 -0.546116 -0.13530037 0.09210522
000070 0d 05 78 be 49 e6 4d bf a0 d8 7b 3b dd 29 81 bf
       -0.24220677 -0.8042951 0.003842868 -1.0090901
000080 39 32 36 bf 41 95 20 3e d9 0d ca be d2 14 3a be
       -0.71170384 0.15681936 -0.3946369 -0.18172005
000090 57 a6 a6 bf f1 82 e3 3d 06 13 ca bd 7e 33 6a bf
       -1.3019513 0.111089595 -0.0986691 -0.9148482
0000a0 80 12 b0 3e 32 47 12 bf f1 53 6f be 28 10 fa be
       0.34389114 -0.57139885 -0.23371865 -0.4884045
0000b0 8c 1b 6e 3e f0 f2 c2 be 4a 99 e0 3b 3c cc 6a 3d
       0.23252696 -0.38075972 0.006854211 0.05732368
0000c0 f3 f7 8c 3c c0 53 9c 3e d1 a0 a5 bc e1 4e 12 be
       0.017208075 0.30532646 -0.020218285 -0.14287902
0000d0 24 27 55 be 7c 34 4b bc 89 16 1e bf 27 a3 61 be
       -0.20815712 -0.01240265 -0.61753136 -0.22034894
0000e0 ad 2f 97 be 83 59 0b bf 4d 60 6f bf 4b 2b 25 bf
       -0.2952856 -0.5443346 -0.9350632 -0.64519185
0000f0 6f f2 70 be f3 bc 0e bd 4f 3e 3b bf 5e 06 61 3e
       -0.23529981 -0.034848165 -0.7314195 0.21975085
000100 7a 02 a3 3d 04 02 4f be 92 31 13 bf d0 a9 e2 be
       0.07959457 -0.20215613 -0.57497513 -0.44270182
000110 0c 25 9e be 61 e9 cc 3e ff 74 8e 3e 7c 52 8d bd
       -0.3088764 0.40021804 0.27823636 -0.06900498
000120 41 36 b0 bd a9 05 63 3e 9c b7 65 bf e7 66 75 bd
       -0.08604098 0.22170128 -0.8973329 -0.05991259
000130 ec f4 4e 3c e0 89 a4 3e fa 08 33 be da 2a 89 be
       0.012631636 0.3213644 -0.17483893 -0.26790506
000140 74 ce f4 3e fd 55 ac be 80 e1 70 bd ea 78 15 bd
       0.4781376 -0.33659354 -0.058808804 -0.036492266
000150 a9 42 6b 3e 51 46 7b bf 6c af cb be d2 14 84 be
       0.22974648 -0.9815417 -0.39782274 -0.25797135
000160 3a 8f e0 be f9 1f b3 be e1 58 b5 3d dd 95 30 be
       -0.43859273 -0.3498533 0.08854843 -0.17244668
000170 a3 89 5b be 9f 36 16 be 7f b8 72 bf 00 52 31 bf
       -0.21439223 -0.14669274 -0.9481277 -0.6926575
000180 6d 62 cb be 83 a5 ca be 7a d8 a6 3c 57 bb f2 be
       -0.3972353 -0.395794 0.020366896 -0.47408554
000190 ee a2 20 bf 69 b0 28 3e 5e 44 b4 be 7a fb 69 be
       -0.6274861 0.16473545 -0.3520841 -0.22849837
0001a0 ae 54 23 bf 83 9e 20 bf 35 80 5a bf 88 6f 90 bd
       -0.63801086 -0.6274187 -0.8535188 -0.07052523
0001b0 e2 2d d9 be 0b 75 9c be e3 2b 0d be be a0 27 be
       -0.42417818 -0.30558047 -0.13786273 -0.16369912
0001c0 c0 17 14 be e9 a0 17 bf 7e dc ba bd 9d 40 04 bf
       -0.14462185 -0.59229904 -0.09124087 -0.5166109
0001d0 5e 17 0e bf ed 8b 61 bf 28 7b b8 3d a9 37 1a bf
       -0.55504405 -0.88104135 0.09007865 -0.6024118
0001e0 e1 50 1f be 27 6e 80 bf c0 90 30 bf d5 5a 93 bf
       -0.15558197 -1.0033616 -0.6897087 -1.1512095
0001f0 73 33 83 bf 62 ae ce be c5 aa 31 be 8f dd c6 3b
       -1.0250076 -0.4036742 -0.173503 0.0060688923
000200 83 86 3f 3e fb 4e d8 3d ed 01 94 3d dc 44 6b 3d
       0.18703656 0.10561939 0.0722693 0.057438716
000210 1c 7e cd 3d a9 13 84 bf 1e 41 40 3e c9 0d 9e be
       0.10033819 -1.03185 0.1877484 -0.30869892
000220 65 7d 4f 3e 7c 9b 5d bf d2 7b ee 3c 2e 39 33 bf
       0.20262678 -0.86565375 0.029111777 -0.70009124
000230 50 2f 39 3e aa 46 e5 be 7a 6a 1d bf f0 23 f2 bd
       0.18084455 -0.44780475 -0.61490595 -0.11823261
000240 e4 fb f7 bd d9 6e 71 bf 4f 50 22 bf 43 8c 31 bf
       -0.12108591 -0.94309765 -0.6340379 -0.6935465
000250 60 a4 5e be ed 2b aa be cc c1 52 bd 76 8f b3 bd
       -0.21742392 -0.33236638 -0.05145435 -0.087675974
000260 fb fe 17 bf b0 06 2f bf e1 58 39 bf 36 3f d3 3d
       -0.59373444 -0.6836958 -0.72401243 0.10314791
000270 d7 61 a0 be 53 06 7b 3e ff 39 1d bf ab cc 08 bf
       -0.31324646 0.24514131 -0.6141662 -0.534373
000280 ed d0 fa bc 40 61 39 bd 33 03 d7 bd bb 2d b0 be
       -0.030617202 -0.04525876 -0.10498657 -0.3440989
000290 74 6d bb be e4 43 d4 be a7 83 46 bf 8c bc 34 bd
       -0.36606944 -0.41458046 -0.77544636 -0.044125125
0002a0 80 47 13 3e 02 b6 94 be d4 6d 93 be 93 ca 42 bf
       0.14382744 -0.2904511 -0.2879473 -0.76090354
0002b0 cd 16 cd bc a0 fb 69 3e 2a 91 91 bf fc d6 ca be
       -0.025035286 0.22849894 -1.1372426 -0.39617145
0002c0 e5 00 8d 3d cc bb c8 be e2 98 00 3f 10 49 d9 be
       0.06884936 -0.39205778 0.5023328 -0.42438555
0002d0 9a dc 73 3e d3 a3 b3 be 32 67 d4 be 19 8b 08 bf
       0.23814622 -0.35085925 -0.41484982 -0.53337246
0002e0 ed e1 05 bf 05 8b f8 be ba c8 68 be 00 5f 9d be
       -0.5229786 -0.48543563 -0.22732821 -0.30736542
0002f0 7e 1b 77 be 9a d7 1b bf 6e 5c 17 bf 35 74 6a 3e
       -0.24131581 -0.60875857 -0.5912541 0.22895892
000300 07 bd e9 be 6d d1 b4 be 1b ec 15 3e f2 2c bc be
       -0.4565203 -0.3531603 0.14640848 -0.3675304
000310 74 8b 29 bf 0a 85 37 be e6 52 59 bf ee c4 b6 3e
       -0.66228414 -0.17921844 -0.8489212 0.3569712
000320 e6 32 e2 bd 43 b2 50 be 67 35 27 bf 69 5d 31 bf
       -0.11044864 -0.20380501 -0.6531586 -0.6928316
000330 81 ab 1f bf a0 c7 00 bf 3a cd 0c bf d9 6d 93 be
       -0.6237107 -0.50304604 -0.5500065 -0.28794745
000340 f7 14 51 be 3b 0d 25 3e 3a 41 d7 bd 63 ef b7 be
       -0.20418154 0.16118328 -0.10510488 -0.35924825
000350 cf 4a e7 be 8c 25 21 bf f2 13 19 bf 31 a1 32 bf
       -0.45174262 -0.62947917 -0.5979606 -0.6977721
000360 f8 98 e5 3a 8e 8a fd 3c 57 d8 0c bf dc 2e 03 bf
       0.0017516902 0.030949857 -0.5501761 -0.51243377
000370 f5 42 d5 be b8 c6 ed 3d 0d 2c cb be 47 62 90 be
       -0.41652647 0.11610168 -0.39682046 -0.2819998
000380 c1 7b 81 bf a4 76 e7 be 87 6e 43 be 92 43 94 be
       -1.0115892 -0.45207703 -0.19085132 -0.28957802
000390 78 b8 b7 be 96 c3 26 bf ae 39 79 be e5 11 af bb
       -0.35882926 -0.6514219 -0.2433841 -0.0053427094
0003a0 17 66 64 bd 3b ac b9 be c4 39 2c bf d5 55 d1 3e
       -0.055761423 -0.36264214 -0.67275643 0.40885797
0003b0 9d 2f 28 bf 00 1f f3 bc bd 21 92 be 03 08 18 bf
       -0.6569765 -0.029677868 -0.28541365 -0.59387225
0003c0 fa d3 05 bf 27 3b 2a bf 10 a2 54 be 30 83 9c be
       -0.52276576 -0.6649651 -0.20764947 -0.30568838
0003d0 db e3 36 bf bc 80 40 bf 3b 44 85 3e fe 07 01 bf
       -0.7144143 -0.75196433 0.26028618 -0.5040282
0003e0 70 e9 c9 3e 10 7f 80 be b4 30 50 be b5 02 db be
       0.3943591 -0.2509694 -0.20331079 -0.42775503
0003f0 15 96 30 be 5b 41 ad be 7f 67 ba be a7 4b b0 3e
       -0.17244752 -0.33838925 -0.36407086 0.34432718

fc.2.weight f4 [256]
000000 63 5e 41 3f 87 41 0a 3f 38 ef 73 3f b2 29 68 3f
       0.7553465 0.54006237 0.95286894 0.9068862
000010 38 2b 67 3f 73 65 c1 3f 5a 47 62 3f 30 ca 3d 3f
       0.9030032 1.5109085 0.88390124 0.7413664
000020 16 da 8f 3f 07 39 9c 3f bd ac 37 3f 2f 73 02 3f
       1.123843 1.2204903 0.7174795 0.50957006
000030 43 16 ad 3f b5 d2 21 3f ef a2 0e 3f be bd 1c 3f
       1.3522419 0.6321214 0.55717367 0.61227024
000040 0b 88 a7 3f ae 1a 4c 3f ea db 08 3f c4 de 24 3f
       1.3088392 0.7972821 0.5346056 0.64402413
000050 f1 bc a6 3f 5f 67 05 3f ae 0b d4 3f e2 fe 08 3f
       1.302641 0.52110857 1.6566064 0.5351392
000060 cf 77 99 3f d5 76 26 3f 8c 33 3b 3f 83 68 23 3f
       1.1989688 0.65025073 0.7312553 0.6383135
000070 f0 5d 93 3f cf 6f 98 3e 3b fc 16 3f 7d 04 ab 3f
       1.1513042 0.29772803 0.58978623 1.3360745
000080 65 b8 bd 3f 06 ca 79 3f f6 45 84 3f 21 c7 57 3f
       1.4821898 0.9757389 1.033385 0.8428822
000090 6c c1 fd 3f be ca 7d 3f cc c5 04 3f 72 ca 16 3f
       1.9824653 0.99137485 0.51864314 0.5890266
0000a0 f3 56 0d 3f e4 97 07 3f c5 a3 36 3f 31 d8 b1 3f
       0.552108 0.5296614 0.7134364 1.3894101
0000b0 67 a1 0d 3f 48 a4 31 3f cd 82 5e 3f 69 e9 35 3f
       0.55324405 0.693913 0.86918336 0.7105928
0000c0 42 27 90 3f 39 fc c0 3f 81 99 16 3f 68 ae 0e 3f
       1.126198 1.5076972 0.5882798 0.5573487
0000d0 fe c9 0c 3f f2 ca 83 3f 2b 75 a9 3f d2 e8 30 3f
       0.54995716 1.0296309 1.3238882 0.69105256
0000e0 02 bd 58 3f c5 46 37 3f 65 c3 1f 3f 73 6a 3c 3f
       0.84663403 0.7159236 0.62407523 0.7359993
0000f0 fc df ad 3e e7 ec 1c 3f 70 05 96 3f e0 cd 86 3f
       0.3395995 0.61298984 1.1720409 1.0531578
000100 72 b0 89 3f d7 f6 28 3f 49 b9 02 3f 8c 8f fb 3e
       1.0756972 0.6600165 0.5106397 0.49132955
000110 08 f3 6e 3f 47 a4 b0 3f e9 3e fe 3e 49 93 52 3f
       0.93339586 1.3800133 0.49657372 0.8225599
000120 ed 7d e3 3e b1 a2 ed 3f fb 09 9b 3f 0c 15 05 3f
       0.4443201 1.8565274 1.2112421 0.5198524
000130 3f 63 29 3f 61 0e ac 3f b9 64 0e 3f cc 54 09 3f
       0.6616706 1.3441888 0.5562244 0.53645015
000140 c7 74 ea 3f 4a 19 26 3f ef 1b 19 3f 97 0e 0d 3f
       1.8316888 0.6488234 0.5980825 0.5510039
000150 d6 07 ff 3f 1c 42 5a 3f d2 3e 16 3f 7b bb 27 3f
       1.9924266 0.85257125 0.58689606 0.6552045
000160 e9 99 89 3f f6 de 6f 3f ad b2 27 3f b3 36 02 3f
       1.0750095 0.93699586 0.6550701 0.50864714
000170 0c 0e 2a 3f 36 cd 24 3f 9e 78 93 3f 75 1d 08 3f
       0.66427684 0.6437563 1.1521184 0.5316995
000180 1e 4e 15 3f eb 7e 15 3f 9f 9e de 3e ee 1e 83 3f
       0.5832232 0.58396786 0.43480393 1.0243814
000190 4a 0d f6 3e c7 2f 6f 3f 89 8d 82 3f b9 a7 12 3f
       0.48057014 0.9343228 1.0199443 0.57287174
0001a0 de 6d b9 3f 8c ad cc 3f 8f 67 1c 3f a0 6e 76 3f
       1.4486654 1.5990462 0.6109552 0.9626255
0001b0 fc db 87 3f 97 7f 78 3f 2b 24 2d 3f 90 c4 26 3f
       1.0614009 0.97069687 0.6763331 0.6514368
0001c0 fe b5 36 3f 67 97 61 3f f1 2b 7a 3f b1 4c 43 3f
       0.7137145 0.88121647 0.977233 0.76288897
0001d0 b9 62 b2 3f e8 5b 15 3f 30 da 7c 3f 7e 46 c9 3f
       1.3936378 0.5834336 0.9877043 1.5724638
0001e0 36 d3 69 3f 71 62 3c 3f 20 c1 14 3f c0 ac af 3f
       0.9133791 0.7358771 0.58107185 1.3724594
0001f0 60 65 5f 3f 2d 16 37 3f b4 6d 5f 3f ed b8 55 3f
       0.8726406 0.7151821 0.8727677 0.834853
000200 2c 73 14 3f 17 0d 39 3f bc 16 23 3f 2e 67 56 3f
       0.5798824 0.722856 0.63706565 0.8375119
000210 9a 8b 39 3f 81 73 70 3f c7 c5 cb 3f 1f a6 4c 3f
       0.7247864 0.93926245 1.5919732 0.7994098
000220 03 02 07 3f 31 37 7f 3f 45 24 56 3f 22 7b c4 3f
       0.52737445 0.9969359 0.8364909 1.5350077
000230 d8 4d c4 3f a6 98 28 3f 76 98 86 3f 86 e7 80 3f
       1.5336256 0.65857923 1.0515277 1.0070655
000240 3d 4e 0c 3f 9c 3e bb 3f 61 51 7b 3f a1 f0 64 3f
       0.5480688 1.4628482 0.9817105 0.8942967
000250 d9 62 13 3f c6 8d 7e 3f b7 1e 28 3f 7a 46 a1 3f
       0.57572705 0.9943508 0.6567187 1.2599633
000260 9a f5 c0 3f 37 3f 8e 3f 64 fa d0 3f 86 28 74 3f
       1.5074952 1.1113042 1.6326413 0.95374334
000270 21 e1 18 3f 52 4c 8c 3f 03 6d c3 3f a4 69 0d 3f
       0.5971852 1.0960791 1.5267643 0.5523932
000280 f2 cd 33 3f 8b 5b 94 3f 4a 28 0b 3f 7a 41 0c 3f
       0.7023612 1.1590437 0.5435835 0.5478741
000290 a0 dd 12 3f 59 aa 2f 3f c7 d5 b1 3f 4c 0b 29 3f
       0.5736942 0.68619305 1.3893365 0.6603286
0002a0 9c 76 1b 3f b8 2e 27 3f d9 5b 84 3f a5 31 83 3f
       0.6072786 0.6530566 1.034053 1.0249525
0002b0 38 5c 61 3f cf d5 32 3f ea d9 56 3f 64 28 1f 3f
       0.8803134 0.69857496 0.8392626 0.62171006
0002c0 53 10 26 3f ae 4c 3a 3f d8 35 bf 3f 31 33 8d 3f
       0.6486866 0.72773254 1.4938307 1.1031247
0002d0 ad 60 56 3f 18 0f 1f 3f b0 65 5a 3f 05 df 3a 3f
       0.83741266 0.62132406 0.8531141 0.7299655
0002e0 9f 8e 32 3f f4 0b 10 3f b9 35 c4 3e 93 28 38 3f
       0.6974887 0.5626824 0.38322237 0.7193691
0002f0 d6 c9 1a 3f 87 10 a0 3f a8 5e 10 3f 9b 62 42 3f
       0.6046423 1.2505044 0.56394434 0.7593171
000300 4e 1b f6 3e f2 0c 14 3f f1 0f f6 3e a0 c6 12 3f
       0.48067707 0.5783225 0.48059037 0.5733433
000310 54 11 ec 3e aa f3 bf 3e 30 94 bf 3f 3e 7d e1 3f
       0.4610697 0.37490588 1.4967098 1.7616346
000320 25 71 7a 3f 1a 02 08 3f 80 29 69 3f 12 09 68 3f
       0.97828895 0.53128207 0.9107895 0.9063884
000330 69 e3 2c 3f 26 eb 2c 3f 34 46 32 3f f6 58 70 3f
       0.675345 0.6754631 0.6963837 0.93885744
000340 0a c4 12 3f 45 bc 98 3f f0 38 59 3f c3 fd 2c 3f
       0.5733038 1.1932455 0.84852505 0.6757471
000350 1c a8 b1 3f f5 4f 11 3f 97 b5 23 3f 7c 9b 61 3f
       1.3879428 0.5676263 0.6394896 0.88127875
000360 13 66 3b 3f 9e 59 05 3f 02 b6 b2 3f 07 59 d6 3e
       0.7320263 0.5208987 1.3961794 0.41864797
000370 bd cd 58 3f 32 86 c5 3f c3 19 18 3f f0 59 61 3f
       0.8468893 1.5431578 0.5941431 0.8802786
000380 b5 6c 10 40 2a 36 f2 3e 6c 88 f4 3e 64 a1 08 3f
       2.256635 0.4730695 0.47760332 0.5337126
000390 97 f3 c9 3e 87 a0 1c 3f 86 f2 60 3f 38 23 73 3f
       0.39443657 0.61182445 0.8787006 0.94975615
0003a0 b5 b1 51 3f d7 62 af 3e 82 60 ab 3f 95 31 5d 3f
       0.81911784 0.34255096 1.3388827 0.8640378
0003b0 4b 0c 77 3f 48 51 4b 3f 98 5c 1c 3f eb 9b 1b 3f
       0.9650313 0.794209 0.61078787 0.60784787
0003c0 aa 79 13 3f 71 8f 8a 3f f0 2b f4 3e 66 d1 07 3f
       0.5760752 1.0825025 0.47689772 0.5305389
0003d0 a6 fc 96 3f db 55 85 3f b6 5e cc 3f a6 eb 28 3f
       1.1795852 1.0416826 1.5966403 0.6598457
0003e0 d8 33 44 3f e6 21 24 3f bc 0a 93 3f 22 16 0b 3f
       0.7664161 0.64114225 1.1487651 0.54330647
0003f0 e6 d2 fd 3e c1 fb 44 3f ed 09 3a 3f 8c 16 d4 3f
       0.49574965 0.76946646 0.72671396 1.6569381

fc.2.bias f4 [256]
000000 b1 06 26 3e 99 a0 8f 3d 39 b6 99 3e 7a 46 74 3e
       0.1621349 0.070130534 0.30021837 0.2385501
000010 30 63 c6 3e 20 93 2e 3f 8f a6 a4 3e b3 1e 4d ba
       0.3874755 0.68193245 0.32158324 -0.0007824704
000020 29 0e 83 3e 04 94 0d 3f d1 85 53 3e bf 12 00 3e
       0.2559674 0.5530398 0.20656516 0.12507151
000030 2b 89 3f 3f 52 b0 20 3e 40 53 92 3d 14 54 67 3b
       0.74818677 0.15692261 0.07144785 0.0035297917
000040 7a b9 ab 3e 6b 42 fb 3e a5 11 43 3d 5b b7 50 3e
       0.33539945 0.4907411 0.04762425 0.20382445
000050 0a 33 c5 3e b2 dc 64 bc 91 9b 65 3f c4 23 33 3e
       0.38515502 -0.0139686335 0.896905 0.17494112
000060 e6 8e 66 3e 1e c0 42 3e cd 42 cb 3d 4a 5c d1 3d
       0.22515449 0.190186 0.099248506 0.10222681
000070 b9 38 96 3e ea 9a 0e be 64 a2 ca 3d 46 6e ba 3e
       0.2934015 -0.13926283 0.09894255 0.36412257
000080 08 20 7e 3f 29 52 92 3e 61 7b 19 3e b6 39 44 3e
       0.99267626 0.28578308 0.14988472 0.1916264
000090 ca 8e d1 3e a9 bc a1 3d 7e 7a b8 bc 6a da 0f bd
       0.40929252 0.07897312 -0.022519346 -0.035120405
0000a0 8e 37 0c 3f e3 7f cc 3c 70 9e bb 3d b7 77 76 3f
       0.5477227 0.024963325 0.09161079 0.9627642
0000b0 42 b3 9b 3d 87 6d 06 3e 7f 8f 53 3e 7b 2b 75 3e
       0.0760255 0.13127719 0.20660208 0.23942368
0000c0 2f 65 a4 3e 6b de 50 3f 67 0b 24 3e 39 be a5 3d
       0.32108447 0.8158938 0.16019975 0.08092923
0000d0 53 96 8f 3d ec d0 4e 3e d5 fd 26 3f 5c d1 f2 3d
       0.07011094 0.20196885 0.65231067 0.118563384
0000e0 41 34 9a 3e 82 6a 38 3e e1 8b 5c bf 00 82 e6 3d
       0.30117992 0.1800938 -0.8615094 0.11255264
0000f0 90 d0 2e bd ee 5e 12 3d 5c 30 11 3e fa c2 1a 3e
       -0.04267937 0.035735063 0.14178604 0.1511344
000100 c6 ed f0 3e b7 bb c8 3d 63 34 5c bb a3 44 f9 bd
       0.47056407 0.09801429 -0.003360056 -0.121712945
000110 73 b7 20 3e ed fb 46 3f 37 6c 8f 3c e4 f3 69 3e
       0.1569498 0.7772816 0.017507656 0.22846943
000120 b9 95 60 bc 60 bb 72 be 50 17 0a 3e 07 00 a9 3d
       -0.013707572 -0.2370429 0.13485456 0.08251958
000130 09 43 3d 3e 7d c2 2c 3f 68 4f 0b 3e 32 ef a1 3d
       0.18482603 0.67484266 0.1360451 0.07906951
000140 24 a7 7c 3f 0e 76 d9 3d 74 6c 70 3d 0f e9 e6 3d
       0.98692536 0.1061822 0.05869718 0.11274921
000150 11 5a 31 3f 34 30 8f bf 60 db ca 3c 9c 91 9a 3d
       0.69278055 -1.1186585 0.02476281 0.07547304
000160 a8 4d e3 3e d6 6e f4 3d 04 8d 28 3e 14 b0 88 3d
       0.44395185 0.11935203 0.16460043 0.06674209
000170 c1 50 66 be 9f 86 06 3d 26 7d eb 3d 7a 08 ec 3c
       -0.22491743 0.03284323 0.114984795 0.028812636
000180 4b bc 9c 3d 6a 63 e9 3d b4 f3 47 bc 0e ad 27 3e
       0.076531015 0.11395915 -0.012204099 0.16374609
000190 4d be 7a bd d6 9d 90 bf 74 41 94 3e db eb ec 3d
       -0.06121664 -1.1298168 0.28956187 0.11568423
0001a0 8a 13 38 3f cb 94 4a 3f 51 f1 7c 3e 31 a1 3b 3e
       0.71904814 0.7913329 0.2470143 0.18323208
0001b0 63 a2 1b 3e fd b2 83 3e a0 6d 32 bd 36 82 2c 3e
       0.15198664 0.25722495 -0.043561578 0.16846547
0001c0 00 4a f2 bb 86 cd a1 bd 24 07 aa 3b fe b9 58 3e
       -0.0073940754 -0.079005286 0.0051888395 0.211647
0001d0 74 32 8f 3f eb 6a 80 3d 02 5f 05 3e e4 cc 33 3f
       1.1187272 0.06270393 0.13024524 0.70234513
0001e0 e1 40 4a be 7d 63 6c 3d 71 d5 80 bd b7 9d d9 3e
       -0.19751312 0.057712067 -0.06290711 0.4250314
0001f0 67 0a ee 3d f0 2a 95 3e 9c 2a 12 3f ff 2b 27 3e
       0.11623078 0.2913432 0.57096267 0.16325377
000200 43 c6 72 bd 93 cb e9 3d 00 7c 27 3e 1b 29 4d 3e
       -0.05927111 0.11415782 0.16355896 0.20035212
000210 1a ba 98 3d 5a 17 b8 bf 39 d8 48 3f b7 a2 fe 3d
       0.07457371 -1.4382126 0.7845493 0.12433379
000220 ef 74 b5 3d dc cb bf 3d 0d 10 5d 3e 91 c1 87 3f
       0.08860194 0.09365055 0.21588154 1.0605947
000230 7c 01 2d 3f 5f b4 b2 3e 85 4e d1 3e 4c 95 5c 3f
       0.6758039 0.34903237 0.40880218 0.8616531
000240 d5 16 c3 3d d9 65 e3 3e 9b 0c 5a 3e c7 26 88 be
       0.09525839 0.4441364 0.21293871 -0.26592085
000250 55 8b 81 3d ef 29 5a 3e 24 4a 4e 3d 7c 75 c5 3e
       0.063254036 0.21305059 0.050363675 0.38566196
000260 8e 9b 43 3f 93 f4 07 3f 42 0d 49 3f 38 a8 22 3e
       0.7640923 0.53107566 0.78535855 0.15884483
000270 ab 85 99 3d e9 f0 8b 3e e7 67 8b 3f ae a8 dd 3d
       0.07496198 0.27332237 1.0891083 0.10823189
000280 7e d7 ad 3d e1 16 fa 3d 93 04 1d 3e 72 82 9c 3c
       0.084883675 0.12211395 0.15333776 0.01910517
000290 ed 3a a8 3d 1f 48 10 3e 8c b6 2a 3f f4 5d 02 3e
       0.08214364 0.14090012 0.66684794 0.12731153
0002a0 c5 f8 06 3d 79 6f 0f 3e 16 b7 c3 3e 63 bc a7 3e
       0.03295209 0.14007367 0.3822562 0.32760915
0002b0 26 fe c6 be bc 87 40 3e b4 5e 91 bf cd 6f 60 3c
       -0.38865775 0.18801779 -1.1357026 0.01369853
0002c0 13 3c dd 3d 47 bc f1 3d dd da 61 3f 22 21 35 3e
       0.10802474 0.11803489 0.88224584 0.1768842
0002d0 4d 65 8e 3e 87 75 13 3d 0a 96 e0 3e 39 dd eb 3c
       0.2781166 0.036000755 0.4386447 0.02879201
0002e0 dc 02 53 3e 79 26 94 3d fa 16 bd bc 6f bc b8 3c
       0.2060656 0.072339006 -0.023082245 0.02255079
0002f0 2d e7 8a 3d ae be e6 3e a7 0a bb 3d b2 42 70 3e
       0.067823745 0.45067352 0.09132891 0.23462942
000300 2f 90 b9 bd d4 17 29 3e 5a 2b 2e 3c 16 ce f5 3d
       -0.09060704 0.16512996 0.010630453 0.120021984
000310 12 26 a6 bc 8e 2f 98 bd 53 f2 10 3f a9 ec 61 3f
       -0.020281825 -0.07430945 0.5661976 0.8825174
000320 13 e7 d7 3d e5 68 08 3e 23 55 03 3f 27 20 0c 3e
       0.10542121 0.13321264 0.51301783 0.1368414
000330 03 f0 d7 3d 1e 76 22 3e 24 78 3c 3e 61 0a 4a 3e
       0.105438255 0.1586537 0.18405205 0.19730522
000340 8a ad 45 3d 83 24 de 3e 94 d7 26 bd 72 08 cb 3d
       0.048261203 0.4338723 -0.040732935 0.0991372
000350 39 67 21 3f c9 9f 93 3c 5f 8a 4b 3d 42 5e a9 3e
       0.6304813 0.018020527 0.049692508 0.33079726
000360 fa 22 d9 3c 7a c3 9b 3c b0 ea 78 3f f6 d2 89 bd
       0.026505936 0.019014109 0.97233105 -0.06729691
000370 4b a8 6c 3e e1 d0 15 3f cc 1a 4a bc 59 84 99 3e
       0.23111074 0.5852185 -0.01233549 0.29983786
000380 46 e2 19 3f 39 60 f5 bc 95 91 22 3c e6 b3 6c 3e
       0.6011089 -0.02995311 0.009922405 0.23115501
000390 89 0b fd 3c ea 64 b1 3d f8 28 c6 3e 2f 49 31 3e
       0.03088929 0.08661826 0.38703132 0.17313074
0003a0 e7 ec 88 3e 06 1f b8 bc 1b 97 29 3f a3 be ae 3e
       0.26743242 -0.02247573 0.66246194 0.3412982
0003b0 17 80 8b 3d 69 c0 73 3d 7e f8 86 3d 89 84 20 3d
       0.068115406 0.05950967 0.06590365 0.039188895
0003c0 60 69 0b 3e ef 68 9e 3e 45 bd d4 3c c1 e5 16 be
       0.13614416 0.30939433 0.025969157 -0.14736082
0003d0 4f 7b 18 3f 6b 0f 6b 3e 96 53 ce 3e 59 af 6c 3d
       0.59563154 0.229551 0.40298146 0.057784412
0003e0 07 bd 86 3e 79 a2 2d 3e 52 67 9c 3d a0 9e b1 3d
       0.2631609 0.1695651 0.07636894 0.086728334
0003f0 95 e9 35 3d 12 7d da 3d 49 1e 00 3e e3 b5 50 3f
       0.044412214 0.106683865 0.12511553 0.8152754

fc.2.running_mean f4 [256]
000000 cc 6e 1a 3d f2 78 38 3d b3 74 a1 3d cd 37 e5 3d
       0.03770332 0.045037217 0.07883587 0.11192284
000010 f6 1b ca 3e 4b 9b f1 3d ea 2c ba 3d bf d4 6d 3c
       0.39474458 0.11797198 0.09090598 0.014516055
000020 3a 35 25 3d dd 34 0b 3e 4f 2e 42 3e d0 a0 20 3e
       0.040333964 0.13594384 0.18962978 0.15686345
000030 c9 18 ea 3d 83 e4 f2 3d 87 d3 f8 3d 14 a1 a0 3c
       0.11430509 0.118599914 0.12149721 0.019608058
000040 8a 39 aa 3c f7 d7 3a 3e 1d d4 06 3d 11 f4 d9 3d
       0.02077939 0.18246447 0.03291713 0.10642255
000050 84 85 a6 3d 9e 0f 4c 3d 17 50 bb 3d 58 79 0b 3e
       0.08130935 0.04981958 0.09146135 0.13620508
000060 c7 ad a3 3d 74 dd d9 3d 7c 47 31 3b f7 3d d4 3c
       0.0799213 0.10637942 0.0027050665 0.025908453
000070 77 21 82 3d 04 00 00 00 a3 cf a8 3c 69 a5 04 3d
       0.06354039 6e-45 0.020606821 0.03238431
000080 da 40 4f 3e 97 7f d9 3d 99 97 a4 3c 04 00 00 00
       0.20239583 0.10620039 0.020091819 6e-45
000090 bf 2b 17 3c 6d 39 b6 3c c6 72 93 3c 7e b6 6a 3b
       0.0092267385 0.02224418 0.017999064 0.003581434
0000a0 73 77 1f 3f ad 7c d5 3c 72 63 3f 3d a2 55 32 3e
       0.6229164 0.026060427 0.046725698 0.17415479
0000b0 77 1b 29 3d 02 56 92 3d 96 09 6f 3d 68 87 0b 3e
       0.04128596 0.07145311 0.05835875 0.13625872
0000c0 a8 3c 84 3d 70 9a 66 3e 5a f1 81 3e e2 2c 94 3d
       0.06456882 0.2251985 0.2537945 0.07235123
0000d0 ec f8 15 3d 2a 05 5b 3d f8 d6 2c 3e 4d f0 7c 3d
       0.036614344 0.05347172 0.16878879 0.061752606
0000e0 19 63 08 3e d8 c8 0d 3d 58 43 1a 3f cb 54 4a 3d
       0.13319053 0.034615368 0.6025901 0.04939727
0000f0 c5 1b 03 3c ca 0a 2d 3c aa 29 56 3c 7c 52 3a 3d
       0.008002226 0.010561654 0.013071457 0.04548882
000100 4e af 38 3e 40 34 52 3d b5 ba e9 3c a7 ab 96 35
       0.18035623 0.05131936 0.028531412 1.1225828e-06
000110 04 00 00 00 bd 9e 51 3e 20 bd d1 3b e1 27 09 3e
       6e-45 0.2047071 0.0064007193 0.13394119
000120 71 c8 9b 3d c9 ff f0 40 16 e1 b4 3b ce b2 36 3e
       0.076065905 7.531224 0.0055199964 0.17841646
000130 45 f0 9f 3d a4 d2 24 3e 21 16 0d 3e 47 f4 33 3e
       0.078095 0.16095978 0.13777973 0.17573653
000140 34 b0 5e 3e de d4 f1 3d 32 20 d8 3c 33 3a ce 3d
       0.21746904 0.11808179 0.02638254 0.10069694
000150 1d dd df 3d 78 d9 68 3f ab fa 66 3d 55 68 28 3c
       0.10930846 0.9095683 0.0563914 0.010278781
000160 c4 c7 f2 3d ec b5 48 3c 51 ba 44 3e 16 e0 e4 3d
       0.118545085 0.012250405 0.19211699 0.111755535
000170 04 00 00 00 99 70 dc 3c 1e 3d 8f 3b f3 09 84 3c
       6e-45 0.02690916 0.0043712994 0.016118025
000180 af b7 58 3d 9c 53 02 3e 34 93 8b 3c a1 be 23 3d
       0.05290955 0.12727207 0.017037965 0.03997672
000190 b3 4a d8 3b ce 8f 91 40 bc e3 a8 3d ad ce 32 3e
       0.0066007017 4.5488043 0.08246562 0.17461653
0001a0 dc f1 2f 3e db b4 2c 3e c7 73 bb 3e 9d 94 16 3e
       0.17182106 0.16865866 0.3661177 0.14705129
0001b0 dd d7 dc 3c 8e 28 8b 3d 7f 11 5b 3c db 53 1a 3d
       0.0269584 0.067948446 0.013370871 0.037677627
0001c0 af db af 3b 0a a1 d8 3b e6 bf ee 3a f6 2d 1e 3d
       0.0053667645 0.006610994 0.0018215149 0.03861805
0001d0 e0 b7 a7 3e 1f 68 84 3c e2 e0 dd 3c 0f e4 3d 3e
       0.32757473 0.01616293 0.027084772 0.18544029
0001e0 04 00 00 00 69 51 09 3c 15 3e 8e 3f ba 29 da 3c
       6e-45 0.008381226 1.1112696 0.026631225
0001f0 35 fa db 3b 7d f3 9d 3d 57 6b 3f 3e d7 f0 cc 3c
       0.0067131766 0.07712457 0.1869329 0.025017185
000200 2e 10 0d 3a 06 d5 1e 3d d0 22 0b 3e b9 88 a4 3d
       0.0005381134 0.038777374 0.13587499 0.0803389
000210 70 d8 09 3d 90 e8 61 3f 3d 14 45 3e e3 88 91 3d
       0.033653677 0.8824549 0.19246002 0.07106187
000220 1d f3 ee 3c 51 fd 85 3e c3 b3 6e 3d 3f cf 32 3e
       0.02916866 0.26169828 0.058276903 0.1746187
000230 bd f0 02 3e 2c 32 85 3e d2 e3 a5 3d 75 cb ac 3e
       0.12787147 0.2601484 0.08100094 0.33748975
000240 7d e5 b8 3d 40 4f 15 3d 65 c1 92 3d 16 24 9b 40
       0.090281464 0.03645253 0.07165793 4.848155
000250 85 3a 86 3c 97 63 b5 3c 59 0e 6c 3d 1c f8 8c 3d
       0.016385326 0.022142215 0.05763087 0.068832606
000260 0e cc 46 3e 30 31 02 3e 15 f2 c8 3d 0e 0a 66 3d
       0.19413778 0.12714076 0.098117985 0.056161933
000270 b4 e8 27 3f 9d 67 b0 3d b1 df 30 3e 36 23 13 3d
       0.6558945 0.08613513 0.17272831 0.03592225
000280 23 9e 00 3d ca 0e 7a 3c e1 d4 40 3e 9d 7f 58 3d
       0.03140081 0.015262315 0.18831207 0.052856077
000290 c8 38 0b 3d 4a 7e 8e 3d d1 da c9 3d 5b 7d 93 3d
       0.033989698 0.069576815 0.09856189 0.07201644
0002a0 01 17 77 3d 42 37 31 3d 5e df 39 3e a8 33 42 3d
       0.060324673 0.04326559 0.18151614 0.047412544
0002b0 4e b7 e5 40 dc 07 ed 3d 8a 17 54 3f 5f a6 aa 3e
       7.178626 0.11573765 0.8284842 0.33330056
0002c0 33 ea e1 3c ac 96 97 3d 44 3b 6d 3e 91 1e 9e 3c
       0.027577495 0.07401785 0.2316714 0.019301685
0002d0 a3 57 93 3d 9e 1b 96 3c b9 2d b8 3e 28 c2 a8 3d
       0.0719445 0.018323716 0.35972384 0.08240157
0002e0 b5 6a 3d 3e fb db c9 3c ce f4 4f 3c fa 97 a2 3c
       0.18497737 0.024641028 0.012692643 0.019847859
0002f0 8e d4 24 3d a5 bc 75 3d d9 ad c3 3c 39 0a 04 3e
       0.04024177 0.05999436 0.023886608 0.12894525
000300 89 11 b1 3d 4d 17 a9 3d c4 37 fb 3c 4e 0e d2 3d
       0.08645923 0.082563974 0.03066624 0.10256635
000310 0f c3 36 3b e8 8b 20 3d e3 b2 3b 3d 90 7e 40 3e
       0.002788726 0.039195925 0.045824897 0.1879828
000320 93 a4 42 3d 4d f7 5a 3e 0d 43 7c 3e 26 f6 a1 3c
       0.04752023 0.213834 0.24634953 0.019770693
000330 e1 04 6a 3b f4 ba 80 3d 60 67 b6 3d f8 a6 52 3d
       0.0035708474 0.062856585 0.08906436 0.051428765
000340 f0 23 8b 3d 89 eb e7 3d 76 5f 91 3a 91 55 2b 3d
       0.06793964 0.11324222 0.0011091072 0.04182965
000350 e2 a0 0b 3e 85 12 96 3c e1 a9 78 3c 0f 6e 09 3e
       0.1363559 0.018319378 0.015177221 0.1342089
000360 1b c8 0a 3d 5c 40 13 3d ab d5 99 3e ac e5 89 3d
       0.03388224 0.03595005 0.30045828 0.067332596
000370 0b 43 11 3e 37 91 ea 3d 85 c5 b7 3d d3 27 b6 3d
       0.14185731 0.11453479 0.08973221 0.088943146
000380 c4 89 99 3c 08 5c 6b 3d 0a f8 63 3d 47 97 c2 3e
       0.01874245 0.057460815 0.05565647 0.3800604
000390 f9 0e a7 3b 1f 7e 0a 3d 6a d4 38 3e ec 12 f0 3c
       0.0050982204 0.033811685 0.1804978 0.029305898
0003a0 e7 4e e0 3d 78 c1 82 3a 76 66 ec 3d 0e e5 49 3e
       0.109525494 0.0009975871 0.115429804 0.19716284
0003b0 17 dc ab 3c 9d 88 c6 3c 72 9c 6b 3b 4b 08 5b 3d
       0.02097897 0.024235064 0.0035951403 0.053474706
0003c0 93 35 77 3e 72 96 28 3d 9f fa aa 3e 28 20 b8 3e
       0.2414153 0.0411591 0.33394334 0.35962033
0003d0 fa 8d 25 3e e5 23 06 3d d3 81 9a 3d dd ba 14 3c
       0.16167441 0.032749075 0.07544293 0.009077755
0003e0 46 e2 ad 3d f4 42 fc 3d e1 72 ff 3a a8 b0 48 3e
       0.08490424 0.12317458 0.0019489193 0.19598639
0003f0 8f 04 96 3d c0 ab fb 3d 1e 2f de 3d fe ba 2f 3e
       0.07325088 0.12288618 0.10848831 0.17161176
